src/checkpoint.params (torch, 9503 bytes, 6 tensors)

dense1.weight f4 [32, 36]
0	0xbda26598	-0.07929534
1	0x3de8613a	0.113466695
2	0x3d3eaa18	0.046548933
3	0xbe00f4ea	-0.12593427
4	0xbe2788f7	-0.16360842
5	0x3e1c3763	0.15255503
6	0xbdd27c3e	-0.102776036
7	0x3df32ad2	0.11873402
8	0x3df3eeba	0.11910768
9	0xbd74ff34	-0.059813693
10	0x3dd3a966	0.103350446
11	0xbd2f02f4	-0.042727426
12	0xbd460526	-0.048344754
13	0xbcecfe78	-0.028929934
14	0xbe0dab13	-0.13834791
15	0x3d469cc0	0.048489332
16	0xbcfbea08	-0.030751243
17	0xbd20c8dc	-0.039254054
18	0x3c1047e8	0.008806206
19	0xbe25f042	-0.16204932
20	0xbe06afe7	-0.13153039
21	0x3cacebba	0.021108497
22	0xbd9eaf30	-0.07748258
23	0xbd5a57a4	-0.053306237
24	0x3dcd1bea	0.1001509
25	0x3dca5616	0.09879701
26	0x3d1cf8ac	0.03832309
27	0xbd0c23a0	-0.034213662
28	0xbceec180	-0.029145002
29	0x3dc70fe6	0.09719829
30	0xbd9380b8	-0.072022855
31	0xbe0bfe88	-0.13671315
32	0x3da34fc6	0.079742
33	0x3d7a11d4	0.06105216
34	0xbd939226	-0.0720561
35	0x3c31dab8	0.010855369
36	0xbd9b2136	-0.07574694
37	0xbd529e59	-0.051420543
38	0xbe170150	-0.14746594
39	0x3da323ef	0.07965838
40	0x3df6abf0	0.12044513
41	0xbe0baab9	-0.13639344
42	0xbd627dd7	-0.05529579
43	0xbd8bc41e	-0.06824516
44	0x3ce94aab	0.028477987
45	0x3cc1d676	0.023661833
46	0x3da63461	0.08115459
47	0x3e1b5077	0.15167414
48	0xbe05f595	-0.13081963
49	0x3d48645d	0.04892384
50	0x3e20407c	0.15649599
51	0x3dc96c46	0.09835105
52	0xbe00cf98	-0.1257919
53	0x3d044784	0.032294765
54	0xbd9309ea	-0.07179625
55	0x3d4a48a8	0.049385697
56	0xbb2f7e9c	-0.0026778346
57	0xbd3beffb	-0.04588316
58	0xbe0ab2b1	-0.13544728
59	0x3e22ddf1	0.15904976
60	0x3d783a46	0.06060245
61	0x3cafcaa8	0.021458939
62	0xbcc75e4b	-0.024336955
63	0x3c8f2ba1	0.017476859
64	0xbcb68877	-0.022281868
65	0x3dcc670f	0.09980594
66	0x3e1efb54	0.15525562
67	0x3cdd9bca	0.027051825
68	0x3ce8949c	0.028391175
69	0x3deb5308	0.11490446
70	0xbd81b375	-0.06333057
71	0xbd7c033f	-0.061526533
72	0x3ccb49e8	0.024815515
73	0x3dad5f5a	0.084654525
74	0xbdb5384b	-0.08848628
75	0x3d703abc	0.058649763
76	0x3e029ca5	0.12755068
77	0xbb0b9760	-0.0021299943
78	0xbde16943	-0.11006405
79	0xbc31d0d8	-0.010853015
80	0xbe110f9f	-0.14166115
81	0xbd8022ae	-0.062566146
82	0x3da82ed2	0.08212055
83	0xbdfce21e	-0.12347816
84	0xbde5055b	-0.11182662
85	0xbbc42f68	-0.0059870966
86	0xbdcd8158	-0.10034436
87	0x3c4238a8	0.011854328
88	0xbe2871ee	-0.1644971
89	0x3e1a6379	0.15077008
90	0xbde25a58	-0.11052388
91	0xbc335140	-0.0109446645
92	0x3dd051ce	0.10171853
93	0x3dc284da	0.09497996
94	0xbe14f11e	-0.14545104
95	0x3d81d3c2	0.06339218
96	0x3b611b20	0.0034348443
97	0xbe17825b	-0.1479582
98	0xbc4c3fb0	-0.012466356
99	0xbe12ee1a	-0.14348641
100	0x3e0f7dd9	0.14012851
101	0xbd5b91d6	-0.053605877
102	0xbdf7a72e	-0.12092434
103	0xbe06f238	-0.13178337
104	0xbd973e73	-0.07384958
105	0x3e09e413	0.1346591
106	0xbd000974	-0.031259015
107	0x3dc39772	0.0955037
108	0x3dca7f51	0.09887565
109	0xba940b50	-0.0011294875
110	0x3e0545b6	0.13014874
111	0x3da2e541	0.07953883
112	0x3e0155f5	0.12630446
113	0x3e025348	0.12727082
114	0xbd74145e	-0.059589736
115	0x3d8c3c36	0.06847422
116	0xbe080450	-0.13282895
117	0xbd66fc84	-0.05639316
118	0x3d4add8c	0.04952769
119	0x3db354b0	0.08756387
120	0x3d31ec1e	0.04343807
121	0xbc32b104	-0.010906462
122	0x3d84b14e	0.06479131
123	0xbdf68aad	-0.12038169
124	0xbd3ae21a	-0.045625784
125	0x3c372acb	0.011179636
126	0x3d78e916	0.060769163
127	0x3ccb4f9e	0.024818238
128	0xbe0b7cdc	-0.13621849
129	0xbe0e0a5a	-0.13871136
130	0xbce10c6e	-0.027471747
131	0xbd20cfbf	-0.039260622
132	0x3d96ddf2	0.073665515
133	0xbcc88309	-0.024476545
134	0xbded6775	-0.115919985
135	0xbdcad9e1	-0.09904838
136	0xbde58e66	-0.11208801
137	0x3b1f3445	0.002429263
138	0x3c8058a4	0.015667267
139	0xbce956e6	-0.02848382
140	0x3ccf611b	0.025314858
141	0xbe07ac58	-0.13249338
142	0xbd67264c	-0.056433007
143	0x3e07406b	0.13208167
144	0xbe0e680e	-0.13906881
145	0x3daeaf78	0.08529562
146	0xbc9bc9e9	-0.019017177
147	0xbd2f1819	-0.04274759
148	0xbcd896b1	-0.026439043
149	0xbd0493d0	-0.032367527
150	0xbd83a008	-0.06427008
151	0x3e2a47e7	0.16628991
152	0xbde76605	-0.112987556
153	0x3d9c62b7	0.07636016
154	0xbb9e8107	-0.0048371586
155	0x3dd32e7a	0.10311599
156	0xbdfcd30f	-0.12344944
157	0xbb9dd7bd	-0.004816978
158	0x3da7469a	0.08167763
159	0xbd30e0c9	-0.04318312
160	0xbdeea6be	-0.11652897
161	0x3de636bb	0.11240908
162	0xbddfdaad	-0.10930381
163	0xbe2d3e8f	-0.16918395
164	0x3dad7d37	0.084711485
165	0xbdea8bdf	-0.114524595
166	0xbe0dc974	-0.1384638
167	0xbcefe1b2	-0.029282425
168	0xbd7fb3e3	-0.062427413
169	0x3d8077a4	0.0627282
170	0x3da9a6cd	0.08283768
171	0xbd958b5d	-0.07301972
172	0x3d9b6303	0.07587244
173	0x3e2e023a	0.16993037
174	0xbce5fa5f	-0.028073488
175	0x3e110d98	0.14165342
176	0x3da8e44b	0.082466684
177	0x3de2662f	0.11054646
178	0x3cd3af8b	0.025840541
179	0xbdea527f	-0.11441516
180	0xbe137620	-0.1440053
181	0x3e24a355	0.16077931
182	0xbd4a82e8	-0.04944125
183	0x3d90f9f8	0.07078928
184	0xbde4a0f6	-0.11163513
185	0xbd2a78e4	-0.041619197
186	0xbdc3a3b8	-0.09552711
187	0xbdef826e	-0.11694799
188	0x3ddca896	0.10774343
189	0x3db321c2	0.08746673
190	0x3d69ff40	0.05712819
191	0x3d3797b2	0.044822402
192	0xbe1b69e0	-0.15177107
193	0x3d488734	0.048957065
194	0xbd1a486c	-0.037666723
195	0x3cf99f38	0.03047143
196	0xbcd8e088	-0.026474252
197	0x3e0fc651	0.14040495
198	0xbdcf9c5e	-0.101372465
199	0x3e232681	0.15932657
200	0x3bb5ba38	0.0055458806
201	0xbe1839de	-0.14865825
202	0x3dddcee2	0.108304754
203	0x3dd2a3fa	0.10285182
204	0xbd67b226	-0.05656638
205	0x3e0761e5	0.13220938
206	0x3e025697	0.12728344
207	0xbe197b16	-0.1498836
208	0xbdc8ff8b	-0.09814366
209	0xbd06c760	-0.032904983
210	0xbdf763bb	-0.12079569
211	0x3ce5e6b8	0.028064117
212	0xbdc701db	-0.09717151
213	0x3dcbe6aa	0.09956105
214	0x3d5b791c	0.053582296
215	0x3d99867e	0.074963555
216	0x3d2798b6	0.04091712
217	0xbdb0f7b7	-0.08640998
218	0xbdc342ae	-0.095342025
219	0x3db227a5	0.08698968
220	0x3e204412	0.15650967
221	0x3d173669	0.036917124
222	0x3da575ba	0.08079095
223	0xbd853fd1	-0.06506313
224	0xbe2c61bb	-0.16834156
225	0xbdd73794	-0.105086476
226	0x3cffa4b7	0.031206472
227	0x3e17cc09	0.14823927
228	0xbd404aec	-0.04694645
229	0xb9a23ad7	-0.00030942887
230	0xbdcb091d	-0.099138476
231	0xbd2c14b1	-0.04201192
232	0xbd6f55bf	-0.058431383
233	0xbd685d12	-0.056729384
234	0xbdb51684	-0.08842185
235	0xbc891dff	-0.016737936
236	0xbc0d7cd3	-0.008635717
237	0xbd1e3d00	-0.038632393
238	0xbc2e633e	-0.010643778
239	0xbdb209ba	-0.086932614
240	0x3d8a32b5	0.06747953
241	0x3dc76a1d	0.097370364
242	0x3cfbabf6	0.030721646
243	0x3d490a72	0.049082227
244	0xbdc6a62f	-0.09699666
245	0x3daa4ea6	0.08315782
246	0x3d8e6219	0.069523044
247	0xbe0d83ad	-0.13819762
248	0x3e1f578e	0.15560743
249	0x3d1f8c2a	0.03895203
250	0xbbde5075	-0.0067844936
251	0xbd4ace61	-0.049513225
252	0x3d948d3f	0.07253503
253	0xbce25e57	-0.027632875
254	0xbdbb5fe3	-0.09149148
255	0xbd52dbca	-0.05147914

dense1.bias f4 [32]
0	0xbd21979c	-0.039451227
1	0xbbbb1b6a	-0.005710055
2	0xbda9a090	-0.08282578
3	0xbe089972	-0.13339785
4	0xbd29c6cf	-0.041449364
5	0x3d52d820	0.051475644
6	0xbc4d83e3	-0.012543651
7	0xbd8e563d	-0.069500424
8	0x3dcdee72	0.100552455
9	0x3e269126	0.16266307
10	0xbd96e2fb	-0.07367512
11	0xbcf0df99	-0.029403495
12	0x3dde0ab2	0.10841884
13	0x3ba4f860	0.0050344914
14	0xbdbde8e6	-0.092729375
15	0xbe16bdc0	-0.14720821
16	0x3da38b92	0.07985605
17	0xbdfcf70e	-0.123518094
18	0xbda989db	-0.08278247
19	0xbe1b8a22	-0.15189412
20	0xbe08754a	-0.13325992
21	0x3d254eb7	0.04035827
22	0x3e14d253	0.14533357
23	0x3dc66685	0.09687523
24	0x3e0f8bef	0.14018224
25	0x3d1231a4	0.035691872
26	0x3e226a21	0.15860797
27	0x3cf92ed3	0.030417835
28	0xbd6e760e	-0.058218054
29	0xbd5aaf87	-0.053390052
30	0x3d5306af	0.051520046
31	0x3e15bc71	0.14622666

dense2.weight f4 [12, 32]
0	0x3d0a2c64	0.03373374
1	0x3cb6e1e4	0.02232451
2	0xbe32b186	-0.17450532
3	0x3dd8309f	0.10556149
4	0x3d9f6b96	0.07784192
5	0x3e2a7285	0.16645248
6	0x3dffe8fe	0.124956116
7	0x3d971d0f	0.07378589
8	0xbd9b5a33	-0.075855635
9	0xbcfc4b5f	-0.030797658
10	0x3e3b2c65	0.18278654
11	0x3d89fd65	0.06737784
12	0xbda5fd79	-0.08104987
13	0xbe014328	-0.12623274
14	0xbd6d92c1	-0.058001284
15	0x3db429f8	0.087970674
16	0xbe0361f5	-0.12830336
17	0xbe115b15	-0.14194901
18	0x3dbf351a	0.093363
19	0xbd78f928	-0.06078449
20	0xbe0e038f	-0.13868545
21	0x3dd49cbe	0.10381459
22	0xbc90ae80	-0.017661333
23	0x3d4da0e5	0.05020227
24	0x3e00257f	0.12514304
25	0x3e2db8bc	0.16965002
26	0x3d996542	0.074900165
27	0x3d0286f4	0.031866983
28	0x3d41fc88	0.047359973
29	0xbe0ea583	-0.13930325
30	0x3dddc2b0	0.10828149
31	0xbdeda54e	-0.11603795
32	0xbe055214	-0.13019592
33	0xbb00ac20	-0.0019633844
34	0x3dacf3a2	0.08444907
35	0xbdf289c8	-0.11842686
36	0x3e29faf3	0.16599636
37	0xbc0f8a50	-0.008761004
38	0xbdd6cd6a	-0.104883984
39	0x3d8d001c	0.068847865
40	0x3b8ecdd0	0.004358031
41	0xbc8b47b8	-0.017001972
42	0xbdafe73f	-0.085890286
43	0xbc710e30	-0.014712855
44	0xbb211f50	-0.0024585314
45	0x3d6d84f0	0.057988107
46	0x3b57d830	0.0032935254
47	0x3d4b0188	0.049562007
48	0xbe06fdc8	-0.13182747
49	0x3db9f81a	0.09080525
50	0xbd70a3bc	-0.0587499
51	0xbde87a53	-0.113514565
52	0x3d20b508	0.039235145
53	0x3db4e966	0.0883358
54	0xbe26d3e6	-0.1629177
55	0xbbe9d528	-0.007136006
56	0xbd58061a	-0.052740194
57	0xbdf1dd4c	-0.11809787
58	0xbe08b775	-0.13351233
59	0xbe14c536	-0.14528355
60	0x3d8edc96	0.06975667
61	0xbdb86904	-0.09004405
62	0xbdad00c7	-0.08447414
63	0xbe26f99b	-0.16306154
64	0xbd49059c	-0.049077615
65	0xbd1928a4	-0.037392274
66	0x3e33bd85	0.17552765
67	0xbe2b1929	-0.16708817
68	0x3d6589c8	0.0560396
69	0x3da09cde	0.0784242
70	0xbe074a83	-0.13212018
71	0xbdcf564f	-0.10123884
72	0x3dc3f382	0.0956793
73	0xbdc56dd9	-0.096400924
74	0xbcaacba0	-0.02084905
75	0xbc2375e8	-0.0099768415
76	0xbd3f069c	-0.046637163
77	0x3e2ec615	0.1706775
78	0xbc5972a8	-0.013271965
79	0x3df5791e	0.11985992
80	0x3d9c7d2e	0.07641064
81	0xbdb65122	-0.089021936
82	0x3cd93d50	0.026518494
83	0x3d288c14	0.041149214
84	0xbd733bf6	-0.059383355
85	0xbe166dfc	-0.14690393
86	0x3e0188bf	0.1264982
87	0x3dc0ddf2	0.09417333
88	0x3df79d97	0.12090605
89	0xbd578ae0	-0.052622676
90	0x3e2d0fb1	0.16900517
91	0x3d93d610	0.072185636
92	0xbd920614	-0.071300656
93	0xbc9176b0	-0.01775679
94	0x3e018879	0.12649716
95	0x3d7aebc4	0.06126
96	0x3dbe302e	0.09286533
97	0xbe280f7d	-0.16412158
98	0xbe008765	-0.12551649
99	0x3d207b18	0.03917989
100	0x3d7efaec	0.062251016
101	0xbd92ed77	-0.07174199
102	0x3d10f0f0	0.035386026
103	0x3d21e044	0.039520517
104	0xbdc9e7e3	-0.09858682
105	0x3c7be0f8	0.015373461
106	0xbd890a17	-0.066913776
107	0xbe1e9625	-0.15486963
108	0x3d9b7cd2	0.07592167
109	0xbe0554c3	-0.13020615
110	0x3d9b0a12	0.0757028
111	0x3e257da9	0.16161217
112	0xbe108505	-0.14113243
113	0xbe30e58d	-0.17275067
114	0xbc86ff38	-0.01647912
115	0x3e2da4d9	0.16957416
116	0x3d8f8a6e	0.07008825
117	0x3e0737c3	0.13204865
118	0xbdf421f8	-0.119205415
119	0xbc802dc8	-0.01564683
120	0xbd5632aa	-0.05229441
121	0xbe25395e	-0.16135165
122	0xbe051502	-0.12996295
123	0xbdb735b4	-0.0894579
124	0xbda3b624	-0.07993725
125	0x3e052ff7	0.13006578
126	0xbdd19ffe	-0.10235594
127	0x3dd3de32	0.10345115
128	0x3c82ada8	0.015951946
129	0xbe1f5ca2	-0.1556268
130	0xbc198128	-0.009369172
131	0x3e07fc98	0.1327995
132	0x3de09656	0.10966174
133	0x3d82cea2	0.06387068
134	0xbd864344	-0.06555799
135	0x3c9c5d08	0.01908733
136	0xbd99e23e	-0.075138554
137	0xbe1c6a0e	-0.15274832
138	0x3e240ae7	0.16019784
139	0xbe07a907	-0.13248073
140	0x3e0c2edd	0.13689752
141	0x3d4c9ffc	0.04995726
142	0x3dc62cac	0.09676489
143	0xbc7c1d6d	-0.015387875
144	0x3d31d11c	0.043412313
145	0xbdd62005	-0.10455326
146	0x3b1d4958	0.0024000015
147	0x3e2ed29e	0.17072532
148	0xbda96b27	-0.08272391
149	0xbdb5d52f	-0.08878552
150	0x3d0bdd50	0.034146607
151	0x3e38157d	0.17976947
152	0xbbda0b69	-0.006654192
153	0x3deb487d	0.114884354
154	0xbd606562	-0.054784186
155	0xbe0f5ace	-0.13999483
156	0x3dd8ce6e	0.10586248
157	0x3e12d3dd	0.14338632
158	0xbe09a6b5	-0.134425
159	0x3e31bf85	0.17358215
160	0xbd4d7040	-0.050155878
161	0xbe029886	-0.12753496
162	0x3db8da82	0.09026052
163	0x3de2a714	0.11067024
164	0x3dbe907e	0.093049034
165	0xbcff0688	-0.031131044
166	0x3e193dd1	0.14964987
167	0x3d0062a3	0.031344067
168	0x3c8f8600	0.01751995
169	0xbdb13caa	-0.08654149
170	0x3e2dbf5c	0.16967529
171	0xbb1ac591	-0.0023616294
172	0xbe2ef3e0	-0.17085218
173	0x3db549c2	0.08851959
174	0x3d8eca57	0.06972187
175	0xbbf99931	-0.007617139
176	0xbc033410	-0.008008018
177	0x3e161ab1	0.1465862
178	0xbc0572f0	-0.008145079
179	0x3d6f5a44	0.058435693
180	0xbdcaeb5c	-0.099081725
181	0xbd2ed3dc	-0.042682514
182	0xbdf13f4c	-0.11779651
183	0x3df1b22c	0.11801562
184	0xbd8ee651	-0.06977523
185	0x3da9195c	0.0825679
186	0x3e0dcf15	0.13848527
187	0xbe1474d7	-0.14497696
188	0xbdd411d7	-0.10354965
189	0xbd4a61ab	-0.04940955
190	0xbdecd81e	-0.115646586
191	0xbde4c27c	-0.111699075
192	0x3c521ac0	0.0128237605
193	0xbceefe87	-0.029174102
194	0x3cee1cf0	0.029066533
195	0x3e186fac	0.1488635
196	0x3db810da	0.08987589
197	0x3df9b032	0.1219181
198	0x3d2f6651	0.042822186
199	0x3b663918	0.0035129245
200	0x3d5bce74	0.053663686
201	0xbd4f436e	-0.050601415
202	0xbe0548f0	-0.13016105
203	0x3e091390	0.13386369
204	0x3dbc52f6	0.09195511
205	0x3db624aa	0.08893712
206	0xbda08f3b	-0.07839819
207	0x3c0d6fa5	0.008632575
208	0x3e2b3035	0.16717608
209	0xbd970a88	-0.073750556
210	0x3ba9c5f8	0.0051810704
211	0xbde7da5e	-0.11320947
212	0x3de3e2d6	0.1112725
213	0x3c8a11f8	0.016854271
214	0xbde26ab8	-0.11055511
215	0x3e0d412e	0.13794395
216	0xbdee46ff	-0.11634635
217	0x3d33eba2	0.04392589
218	0x3e139fb7	0.14416395
219	0x3cf68960	0.030094802
220	0x3d3d4d28	0.04621616
221	0xbd97acfd	-0.07406042
222	0x3e218fef	0.15777563
223	0xbdebc84a	-0.115128115
224	0xbc939e80	-0.018019915
225	0xbd084df6	-0.033277474
226	0x3dd23a42	0.10265018
227	0x3da26e89	0.07931239
228	0x3e14d0cb	0.14532773
229	0xbe083d7b	-0.13304703
230	0x3dd5580e	0.10417186
231	0x3d3df4a2	0.04637588
232	0xbd368d9c	-0.044568643
233	0xbdb28ca2	-0.0871823
234	0xba28be08	-0.0006437008
235	0x3db5cbbd	0.088767506
236	0xbde16b43	-0.11006787
237	0x3deb91ce	0.115024194
238	0xbe218d25	-0.15776499
239	0xbd3431ef	-0.043992933
240	0xba514c28	-0.00079840655
241	0xbde453d7	-0.11148804
242	0xbdf6dd76	-0.12053959
243	0x3e1e400c	0.1545412
244	0x3d166da4	0.036725655
245	0xbe3006f7	-0.17190157
246	0x3e082fb9	0.13299455
247	0x3db29d9d	0.087214686
248	0xbd87ced7	-0.066312484
249	0x3da9cf5f	0.08291506
250	0xbd844a4d	-0.06459484
251	0x3dce771b	0.10081311
252	0xbe32ee35	-0.17473681
253	0xbe0d962b	-0.13826816
254	0xbe19adb3	-0.15007667
255	0x3d844814	0.0645906

dense2.bias f4 [12]
0	0x3d4f8629	0.050665054
1	0x3e0785ff	0.13234709
2	0xbda338fc	-0.07969853
3	0xbdd0727e	-0.10178088
4	0x3e39446b	0.18092506
5	0xbde6ebbf	-0.11275434
6	0x3e1fa599	0.15590514
7	0xbe303333	-0.17207031
8	0x3b55dfe0	0.003263466
9	0x3e26e936	0.162999
10	0x3e2f3c6c	0.17112893
11	0x3dc7e666	0.09760742

dense3.weight f4 [2, 12]
0	0xbe650f35	-0.22369082
1	0x3c2abe20	0.010421306
2	0xbe7f0c6b	-0.24907081
3	0x3e303ee4	0.17211491
4	0xbe1e8e89	-0.1548406
5	0xbda17c27	-0.07885008
6	0x3e1a0bfa	0.15043631
7	0xbe7e5b0d	-0.2483942
8	0xbda5e3e0	-0.08100104
9	0x3dbad84f	0.09123289
10	0x3df0c7e6	0.117568776
11	0xbdebbea5	-0.11510972
12	0xbdbb3402	-0.09140779
13	0xbde5b048	-0.112152636
14	0x3dbc08ec	0.09181389
15	0xbd1719f8	-0.03689
16	0xbd6a25c7	-0.057164934
17	0xbd965602	-0.073406234
18	0x3e82a125	0.2551357
19	0xbe908970	-0.28229856
20	0x3e70f104	0.2352944
21	0x3e500eef	0.20318197
22	0x3e5c96d5	0.21541913
23	0xbe72d774	-0.23715001

dense3.bias f4 [2]
0	0xbdd26c68	-0.10274583
1	0x3dac1ee7	0.08404332
