src/checkpoint_.params (torch, 13535 bytes, 5 tensors)

module.dense1.weight f4 [32, 36]
0.06903019 0.1459419 0.053440455 0.07834934 0.11010254 0.13630557 0.05306755 -0.094964094
0.080532074 -0.02606503 -0.14876077 0.17221388 -0.06458131 -0.017390259 -0.11479895 0.16113009
0.13306363 0.08608016 0.15347312 -0.1561844 0.1589425 0.0941219 -0.16885434 -0.15311304
0.065628245 -0.1022575 0.04856448 0.06854761 0.14751081 0.100011565 -0.045076422 -0.108766645
0.119824305 0.025257142 -0.079416364 0.10168511 0.0576573 0.035698414 -0.114888296 0.111809656
0.12064798 -0.08818275 -0.0842885 0.15765063 -0.16326961 -0.06735842 -0.052316412 -0.11142697
-0.13709721 0.099001005 -0.11937748 0.14150925 0.08838196 0.04782529 -0.16074297 -0.102741525
0.0005198866 0.13664801 -0.09811207 0.16371407 -0.069245756 -0.096420154 -0.0768566 0.12885322
-0.16222984 0.10439856 0.08941589 -0.083690345 0.064229414 0.021632254 -0.044942103 0.0649461
0.12317462 -0.12759492 -0.011237904 0.049984768 0.028502777 -0.11335345 -0.05385773 0.09185575
0.1583518 0.04519947 -0.15851584 -0.016074061 0.024956271 0.16067733 -0.0450508 -0.14174096
-0.01187253 -0.16610119 0.03462048 0.058201626 -0.13658544 0.12796684 -0.053815745 0.118147835
0.023347035 0.16648485 0.1508239 -0.12983456 -0.16645464 -0.11084062 -0.04127328 0.0069989413
-0.13169146 -0.13936697 -0.03999275 -0.13052851 -0.04759038 -0.12004115 0.11838911 0.099222094
-0.1020588 0.06604367 -0.11702368 -0.13262811 -0.14300928 0.15725063 0.045442827 0.14250225
0.15244444 -0.044478502 -0.11534192 -0.12508708 -0.084963374 -0.023373758 -0.09667148 -0.13411817
0.15686508 -0.008603403 -0.08987144 0.13744973 0.031432014 -0.120926246 -0.08603868 0.11753486
0.16925584 0.1717288 -0.092706665 -0.003157788 0.050952796 0.041463666 0.107723854 -0.024591304
-0.123775706 -0.16328244 -0.12347637 -0.121667765 -0.08202716 -0.08390169 -0.091991425 -0.10938424
0.110576645 -0.09767228 0.014063254 -0.022825956 0.14689757 -0.14548466 -0.15261482 0.10822566
0.11957915 0.06222321 -0.14827251 -0.098620474 -0.02523148 0.038123056 0.01385425 0.13241626
-0.1326816 0.0085378885 0.10690145 0.05912 0.01048708 0.02994448 0.01829429 -0.076972924
-0.041354313 0.025414467 -0.11098357 -0.15968981 0.11168343 0.031007178 0.09357675 0.068120494
0.050494485 -0.14420313 -0.046391826 -0.10518844 0.12054756 0.15561832 -0.074691944 -0.026264813
-0.08926291 -0.022179019 -0.10640596 -0.1455121 -0.082331985 -0.08873801 -0.105964825 -0.029559994
-0.12630251 0.032867182 -0.12963085 -0.098731585 0.07240152 0.05750189 -0.16887124 0.061517216
-0.1603685 0.1246091 0.1461796 0.059509598 -0.18337746 -0.018037217 0.16521089 0.09079945
-0.13459629 -0.08043343 -0.019797528 0.08739744 0.025101328 0.1296938 0.0030027197 0.10751615
-0.066212475 -0.041575126 0.097169854 0.15682955 0.14404368 0.072447024 -0.04268705 -0.10343168
0.05302281 0.07281723 -0.042904682 0.09564672 -0.031640492 0.12983869 0.049893238 0.015047419
-0.019332921 0.066305 0.026381755 0.053655095 0.1031096 -0.15207408 0.033125747 -0.06147234
-0.04656871 -0.04314038 0.08902838 0.00078826584 -0.09426745 0.039103866 -0.15134428 0.057774827
00000000: b35f 8d3d cb71 153e 61e4 5a3d 9e75 a03d
00000010: 717d e13d b093 0b3e 5c5d 593d 897c c2bd
00000020: 00ee a43d 5486 d5bc be54 18be d658 303e
00000030: 3543 84bd 0476 8ebc b61b ebbd 49ff 243e
00000040: d541 083e cc4a b03d 0f28 1d3e ceee 1fbe
00000050: d3c1 223e fcc2 c03d 27e8 2cbe aac9 1cbe
00000060: 1a68 863d 616c d1bd 8ceb 463d b062 8c3d
00000070: 130d 173e ddd2 cc3d 0ea2 38bd 0cc1 debd
00000080: 7266 f53d 11e8 ce3c 0ca5 a2bd 4840 d03d
00000090: 102a 6c3d 8038 123d 8e4a ebbd 76fc e43d
000000a0: 4a16 f73d 2899 b4bd 739f acbd 2b6f 213e
000000b0: 2630 27be 36f3 89bd bc49 56bd d333 e4bd
000000c0: 3663 0cbe 0ac1 ca3d 2e7c f4bd cde7 103e
000000d0: 9a01 b53d 74e4 433d ce99 24be 266a d2bd
000000e0: 0049 083a 75ed 0b3e fbee c8bd a9a4 273e
000000f0: b8d0 8dbd ee77 c5bd fe66 9dbd 19f2 033e
00000100: 941f 26be eace d53d ae1f b73d d865 abbd
00000110: b68a 833d 2036 b13c 3615 38bd 7602 853d
00000120: fa42 fc3d 3ea8 02be 301f 38bc d4bc 4c3d
00000130: a87e e93c db25 e8bd ec99 5cbd de1e bc3d
00000140: f926 223e 1423 393d fa51 22be c0ad 83bc
00000150: 1871 cc3c 9988 243e 3087 38bd 8b24 11be
00000160: 0085 42bc 6e16 2abe 34ce 0d3d d464 6e3d
00000170: 0edd 0bbe bd09 033e e66d 5cbd 7ef7 f13d
00000180: 4842 bf3c 017b 2a3e 9571 1a3e 5af3 04be
00000190: 1673 2abe 6800 e3bd 2c0e 29bd 6057 e53b
000001a0: 20da 06be 37b6 0ebe 70cf 23bd 44a9 05be
000001b0: 21ee 42bd 22d8 f5bd fd75 f23d f434 cb3d
000001c0: 3404 d1bd e741 873d 1caa efbd aacf 07be
000001d0: 0671 12be 4f06 213e 4222 3a3d 1cec 113e
000001e0: 651a 1c3e 172f 36bd 6238 ecbd d416 00be
000001f0: 4701 aebd 537a bfbc b2fb c5bd 4656 09be
00000200: 3da1 203e 4af5 0cbc 840e b8bd 9fbf 0c3e
00000210: dbbe 003d 2ea8 f7bd 0c35 b0bd 1eb6 f03d
00000220: 6751 2d3e add9 2f3e fedc bdbd e4f2 4ebb
00000230: e1b3 503d ced5 293d 539e dc3d b473 c9bc
00000240: 1e7e fdbd 8333 27be 2ee1 fcbd f32c f9bd
00000250: dbfd a7bd a6d4 abbd 0066 bcbd d804 e0bd
00000260: 0276 e23d 6808 c8bd 9069 663c 80fd babc
00000270: 516c 163e eef9 14be 0f47 1cbe 6aa5 dd3d
00000280: eae5 f43d c4dd 7e3d c0d4 17be 88f9 c9bd
00000290: 40b2 cebc ec26 1c3d f0fc 623c 2198 073e
000002a0: afdd 07be 80e2 0b3c 26ef da3d d027 723d
000002b0: 00d2 2b3c 204e f53c e8dd 953c fba3 9dbd
000002c0: 2463 29bd 0032 d03c 5b4b e3bd ba85 23be
000002d0: 48ba e43d c402 fe3c 2ba5 bf3d c282 8b3d
000002e0: 4ed3 4e3d fca9 13be 5b05 3ebd 096d d7bd
000002f0: a4e1 f63d 695a 1f3e 17f8 98bd 4e29 d7bc
00000300: 79cf b6bd c6b0 b5bc 5eeb d9bd 2001 15be
00000310: ac9d a8bd 46bc b5bd 1604 d9bd cd27 f2bc
00000320: 7255 01be bd9f 063d f3bd 04be c933 cabd
00000330: 4047 943d 1a87 6b3d 95ec 2cbe 7af9 7b3d
00000340: a437 24be 0e33 ff3d 1bb0 153e 56c0 733d
00000350: 4dc7 3bbe c9c2 93bc 0b2d 293e 10f5 b93d
00000360: 9cd3 09be 48ba a4bd 6d2e a2bc 6efd b23d
00000370: 4da1 cd3c 74ce 043e 47c9 443b 6d31 dc3d
00000380: 689a 87bd ae4a 2abd fd00 c73d ed97 203e
00000390: 3080 133e 1b5f 943d 9ed8 2ebd fdd3 d3bd
000003a0: 722e 593d 3321 953d d2bc 2fbd 6de2 c33d
000003b0: 7699 01bd 6ff4 043e da5c 4c3d 7389 763c
000003c0: 1360 9ebc eaca 873d 8d1e d83c 72c5 5b3d
000003d0: 202b d33d 4fb9 1bbe ddae 073d 6cca 7bbd
000003e0: d5be 3ebd f8b3 30bd 8354 b63d a0a3 4e3a
000003f0: 4b0f c1bd 602b 203d fff9 1abe 4ca5 6c3d

module.dense1.bias f4 [32]
-0.0073706624 -0.12087731 0.1663626 -0.0907637 0.0698629 0.16806228 0.0023136716 -0.116884336
-0.12789579 0.11953618 -0.055411816 -0.09958777 0.09541817 0.16478433 0.09424569 0.14424266
0.033522204 0.086223915 0.10078336 -0.07959962 0.04448977 0.052019313 -0.099538095 -0.083267115
0.077506974 0.14864315 0.049488317 0.14638728 -0.014268816 0.02868258 -0.028406084 0.1447761
00000000: 9985 f1bb 868e f7bd f55a 2a3e 52e2 b9bd
00000010: 4814 8f3d 8518 2c3e f8a0 173b 0e61 efbd
00000020: 1df7 02be 62cf f43d 80f7 62bd acf4 cbbd
00000030: 9a6a c33d 39bd 283e e203 c13d 59b4 133e
00000040: 944e 093d 2a96 b03d 8267 ce3d 2005 a3bd
00000050: e83a 363d 3412 553d a1da cbbd f387 aabd
00000060: fabb 9e3d e935 183e 43b4 4a3d 8ce6 153e
00000070: c1c7 69bc bbf7 ea3c e0b3 e8bc 3040 143e

module.dense2.weight f4 [12, 32]
-0.07371359 -0.14520921 -0.068823636 -0.05974438 0.15763144 -0.16772273 0.1441937 -0.06352855
-0.10881677 -0.17075266 -0.000601843 -0.16327427 0.174522 -0.12784567 -0.023299962 -0.12995064
0.1118056 0.01687695 -0.026429802 -0.07995508 -0.036476493 0.06343895 0.14824326 0.061768517
-0.11133522 -0.10853947 -0.11172857 0.11318152 -0.15493949 -0.07769993 0.024702266 0.08369471
0.13460636 -0.08922113 0.048167467 -0.15979028 0.034752816 0.1255179 -0.15352114 0.02160862
0.07998376 -0.044591814 -0.047282353 -0.09137 -0.05072989 0.16610883 0.063325465 -0.05491173
0.17525719 0.09310262 -0.0515763 0.072785035 0.034878623 -0.07207265 0.17563826 0.12880068
0.11794095 -0.04449685 0.121422134 0.06581538 0.14510661 0.13237819 0.05482559 0.055382844
0.16497503 0.004468426 -0.05227419 0.03772001 0.011731371 -0.17750762 0.0959476 0.02183041
0.08167771 0.024021849 0.045162857 0.0699569 -0.14498314 -0.10095656 0.1121036 0.06204107
-0.00943023 -0.14328757 0.15233804 -0.13842528 0.01556081 0.01989828 -0.0140545005 -0.08858429
0.02237916 0.024672031 -0.03190414 -0.07245915 0.12526184 0.105258815 0.0925491 -0.12127872
-0.13984287 0.15325986 0.11108126 -0.012918294 -0.022510484 0.120553404 -0.12743752 -0.14427955
0.22114588 -0.08362019 -0.14684431 0.16200782 -0.10054491 0.1486829 0.06305733 0.08543066
0.15248732 -0.0440443 0.046802804 -0.018449217 0.052168287 -0.031189218 0.078636736 0.09914528
0.16819365 -0.05205431 0.1644496 -0.051895544 0.14214106 0.060777247 0.1675014 0.06880435
0.04383318 0.063693225 -0.079584755 -0.1338903 0.008149326 -0.05071011 0.05152285 0.17637445
0.0643923 0.14551531 -0.07188634 0.15427552 -0.034905195 -0.090336144 0.15103306 -0.00832288
-0.072421625 -0.09102948 0.064855754 0.16728602 0.050834805 -0.12689643 0.15331574 -0.13568236
-0.0020918995 -0.07740918 -0.01760988 0.021548271 -0.14388487 0.08329584 0.039672315 -0.0023792684
0.077286676 0.0700379 0.05831802 -0.157283 -0.12626536 -0.06469398 0.107215956 0.003624186
0.03492132 0.09659244 -0.13549758 -0.17111492 -0.06658378 0.10187556 -0.05323524 -0.09021853
0.06388019 0.14111198 -0.13403022 -0.015387222 0.04974474 0.11656581 -0.12937643 0.088262424
0.05788064 0.10662897 0.08196874 0.14271216 -0.11929457 0.121236816 0.033082724 -0.06400039
0.13290559 0.11997868 -0.057680488 -0.13856061 -0.035463497 0.0017180596 0.10749453 0.12872614
-0.22434519 -0.16069227 0.14624642 -0.11897078 -0.06783945 0.015969425 -0.10610364 -0.071258105
0.11229877 -0.16465798 -0.069146626 0.165336 0.043492284 -0.17587888 -0.11267752 -0.14320141
-0.13518246 -0.13501137 -0.05815835 0.13969459 0.07694805 -0.048806805 -0.00078979135 0.066481575
-0.13288255 -0.16522545 -0.07808903 -0.16043031 -0.14498657 0.15526412 0.14287484 0.16844429
-0.055714022 0.07341693 0.12575175 0.1427638 -0.057619322 0.13011913 -0.17475285 -0.086380914
0.1359271 0.09080611 0.111046955 0.0060956925 0.0027505043 -0.02760145 0.14679152 -0.11498408
-0.01788409 0.15723108 0.16328451 -0.14229919 0.03246073 0.0046943664 -0.1186293 0.11068626
00000000: 27f7 96bd b9b1 14be 68f3 8cbd 86b6 74bd
00000010: 236a 213e 82bf 2bbe 83a7 133e 421b 82bd
00000020: 54db debd c9d9 2ebe 00c5 1dba 5f31 27be
00000030: e5b5 323e fae9 02be 90df bebc c811 05be
00000040: 56fa e43d 8841 8a3c 5083 d8bc 7dbf a3bd
00000050: 6068 15bd 48ec 813d 15cd 173e fc00 7d3d
00000060: b803 e4bd f149 debd f3d1 e4bd b6cb e73d
00000070: 75a8 1ebe 2421 9fbd 685c ca3c 2268 ab3d
00000080: 40d6 093e 91b9 b6bd 404b 453d 10a0 23be
00000090: f858 0e3d c487 003e a534 1dbe 9004 b13c
000000a0: 87ce a33d e8a5 36bd 24ab 41bd 3220 bbbd
000000b0: 25ca 4fbd 6f18 2a3e c8b0 813d 1feb 60bd
000000c0: 9f76 333e 96ac be3d ac41 53bd 5210 953d
000000d0: e3dc 0e3d d39a 93bd 84da 333e 53e4 033e
000000e0: 068b f13d 5442 36bd 2bac f83d 37ca 863d
000000f0: d496 143e 268e 073e cc90 603d 1fd9 623d
00000100: 37ef 283e e06b 923b 761d 56bd 4c80 1a3d
00000110: f034 403c 8fc4 35be 2d80 c43d b0d5 b23c
00000120: a546 a73d 78c9 c43c b0fc 383d 9045 8f3d
00000130: 7676 14be 50c2 cebd 9296 e53d c71e 7e3d
00000140: 4081 1abc fab9 12be 81fe 1b3e 5bbf 0dbe
00000150: c5f2 7e3c b801 a33c d944 66bc ae6b b5bd
00000160: 8054 b73c 001d ca3c eaad 02bd 7665 94bd
00000170: a444 003e ef91 d73d 628a bd3d fa60 f8bd
00000180: f832 0fbe 27f0 1c3e 927e e33d 41a7 53bc
00000190: e867 b8bc b4e4 f63d fb7e 02be 05be 13be
000001a0: 1174 623e 1041 abbd 5b5e 16be 61e5 253e
000001b0: 7dea cdbd 5540 183e 3424 813d 45f6 ae3d
000001c0: a325 1c3e cc67 34bd 4cb4 3f3d d022 97bc
000001d0: 6aae 553d 8880 ffbc 4c0c a13d ae0c cb3d
000001e0: f53a 2c3e e636 55bd 7a65 283e 6c90 54bd
000001f0: 6d8d 113e 90f1 783d 7d85 2b3e 4ce9 8c3d
00000200: 6c8a 333d 9871 823d 55fd a2bd 8a1a 09be
00000210: c084 053c 68b5 4fbd a009 533d 819b 343e
00000220: 1ce0 833d f701 153e 2539 93bd 67fa 1d3e
00000230: c0f8 0ebd 2802 b9bd 69a8 1a3e b05c 08bc
00000240: ca51 94bd aa6d babd 18d3 843d 074d 2b3e
00000250: 2838 503d 23f1 01be cdfe 1c3e 51f0 0abe
00000260: 4018 09bb b488 9ebd 9842 90bc 0086 b03c
00000270: 8e56 13be 0297 aa3d 707f 223d 80ed 1bbb
00000280: 7a48 9e3d 0870 8f3d e0de 6e3d cb0e 21be
00000290: b54b 01be 477e 84bd 0a94 db3d c083 6d3b
000002a0: a809 0f3d 42d2 c53d e1bf 0abe c038 2fbe
000002b0: 145d 88bd 22a4 d03d 320d 5abd 7ec4 b8bd
000002c0: 9ed3 823d a97f 103e 383f 09be b01a 7cbc
000002d0: 24c1 4b3d 0eba ee3d 417b 04be eec2 b43d
000002e0: 4014 6d3d 4a60 da3d 3adf a73d 2323 123e
000002f0: b650 f4bd 024b f83d c081 073d a312 83bd
00000300: 6718 083e 62b7 f53d 6042 6cbd d5e2 0dbe
00000310: 2c42 11bd 8430 e13a 1826 dc3d c9d0 033e
00000320: bfba 65be 848c 24be 9fc1 153e f4a6 f3bd
00000330: 69ef 8abd 50d2 823c dd4c d9bd c5ef 91bd
00000340: e6fc e53d 1a9c 28be bf9c 8dbd d74d 293e
00000350: f724 323d 9819 34be 79c3 e6bd 64a3 12be
00000360: 456d 0abe 6c40 0abe 7337 6ebd 190c 0f3e
00000370: f096 9d3d a5e9 47bd 000a 4fba 7e27 883d
00000380: 5d12 08be dc30 29be 24ed 9fbd d847 24be
00000390: 5c77 14be 8ffd 1e3e c84d 123e a97c 2c3e
000003a0: 6334 64bd 9e5b 963d 11c5 003e ac30 123e
000003b0: 3d02 6cbd f33d 053e 69f2 32be 7ae8 b0bd
000003c0: 7930 0b3e 8ef8 b93d 966c e33d 60be c73b
000003d0: ce41 343b 701c e2bc 8450 163e c67c ebbd
000003e0: a881 92bc 2f01 213e 0e34 273e e1b6 11be
000003f0: 8bf5 043d 33d3 993b ebf3 f2bd 7aaf e23d

module.dense2.bias f4 [12]
-0.07167661 0.108929135 -0.054597054 -0.101523094 0.02077742 -0.10231851 -0.014966117 -0.07159549
0.10955934 -0.1437684 0.10954927 0.17567182
00000000: 30cb 92bd 3d16 df3d 29a1 5fbd 57eb cfbd
00000010: 6835 aa3c 5e8c d1bd 7234 75bc a8a0 92bd
00000020: a660 e03d 0638 13be 5e5b e03d 50e3 333e

module.dense3.weight f4 [1, 12]
-0.21407254 -0.00767521 -0.30647665 -0.15316948 0.08349061 -0.25256702 0.16076829 -0.20774928
0.21898961 -0.23779154 -0.03062743 0.1984511
00000000: d535 5bbe 5480 fbbb 82ea 9cbe 76d8 1cbe
00000010: 20fd aa3d 7750 81be 71a0 243e 3abc 54be
00000020: d03e 603e a07f 73be 60e6 fabc c436 4b3e
