src/checkpoint_used.params (torch, 9503 bytes, 6 tensors)

dense1.weight f4 [32, 36]
0.079751305 0.023989158 -0.05498808 -0.035102658 -0.15472066 0.012877501 -0.14256924 0.091023535
-0.08679201 -0.10769295 0.089311324 -0.05595817 0.1313164 -0.029550862 -0.018284703 -0.051513854
-0.14056818 -0.010854162 -0.12988532 0.1460557 -0.15141903 -0.11100937 0.05214378 0.14740767
0.1448032 0.06354213 0.0640387 -0.06657041 0.108246766 0.0886439 0.0031384123 -0.12457268
-0.11999287 0.050387543 0.05397369 0.061818786 -0.14568424 -0.010826405 -0.012883627 0.11835354
-0.04221112 0.042312242 -0.13271758 -0.12626162 -0.10626433 0.038289774 -0.1624932 -0.05116933
-0.06836535 0.13971983 -0.077334225 -0.09761345 -0.09153194 0.1563313 -0.011524815 -0.06626298
-0.049751036 0.03596556 -0.026735634 -0.15109743 -0.10898294 0.087116785 -0.054028753 0.0027103515
0.0294458 0.13709338 -0.05702358 0.10635557 -0.075415686 -0.108260185 0.06938747 0.061631583
-0.055416312 0.04681156 -0.1451828 0.065762594 0.060127087 0.034522396 -0.13800523 -0.036699254
0.14181003 0.07296324 -0.07956333 0.013506572 0.04035522 -0.153095 0.07896724 0.070901565
0.12035996 -0.05920462 0.0064223176 0.013634981 0.016050253 0.11787179 0.020704532 0.15051007
0.05887752 0.13770798 -0.16158007 0.047097523 -0.1524514 -0.08707068 -0.05921102 -0.151384
0.033353694 0.08696941 0.117226034 -0.07532898 -0.113555774 0.028341249 -0.16125059 -0.102466926
-0.13301022 -0.060060408 -0.11732961 -0.043255433 0.06140728 0.088955656 -0.046160758 0.090355046
-0.018591605 0.033486255 -0.08937365 0.16461319 0.10752202 -0.04343052 0.034947954 -0.15270466
0.054716814 0.13498995 -0.104597725 -0.14936996 -0.16545343 0.07598102 0.0066592568 -0.14570966
0.010931017 0.0923097 0.07119329 -0.013036687 0.061742388 -0.12119479 0.12034577 0.0593164
-0.0632816 -0.013226699 -0.13894983 0.104168996 0.14430152 0.1467296 -0.07112342 -0.014325068
0.14867422 -0.1011482 0.12037404 -0.12150875 -0.009054876 0.017289951 0.059983 -0.10627552
0.16897406 -0.06349673 0.036703818 0.048053797 0.08264812 0.059383754 -0.124287866 -0.1433143
0.09083797 0.12962885 0.082259856 -0.1327578 0.14955324 -0.052618317 0.1350406 0.020260992
-0.011775963 -0.05162985 0.11709206 0.14340447 0.068942696 0.04434446 0.12535483 0.050060146
-0.057925865 -0.0006211115 0.07614777 -0.03626561 -0.0155147975 0.12116137 0.093806945 -0.091442145
-0.041269924 0.052385267 0.016949201 0.05131973 0.062120352 0.17179629 0.08052438 -0.103256494
0.08385326 0.12103477 -0.082461074 0.038658768 -0.060188476 0.10277357 0.12633309 0.1484593
-0.04224759 0.0998825 -0.08480891 -0.10437847 -0.02868774 -0.14142647 -0.13100176 0.07979784
-0.1434208 0.15274964 0.076443315 -0.09758223 0.08594356 -0.14086726 -0.109549 0.08579588
0.18159218 0.018815788 -0.16109686 0.1756093 -0.089706615 -0.095906496 0.12789698 -0.033928886
0.033787392 0.047174014 -0.041846383 -0.09223887 0.11490884 -0.11831998 -0.059512496 -0.05936382
-0.15356946 -0.14788365 0.14183775 0.11924792 -0.013204331 0.01834538 0.13458034 0.11376195
0.0057300692 -0.01627014 0.13668257 0.09497424 0.060438316 0.093835935 0.03882718 -0.09648236
00000000: a754 a33d e984 c43c 2e3b 61bd cec7 0fbd
00000010: 186f 1ebe 27fc 523c acfd 11be 8c6a ba3d
00000020: 02c0 b1bd 1f8e dcbd dbe8 b63d 6534 65bd
00000030: ce77 063e a614 f2bc cdc9 95bc 3100 53bd
00000040: 1bf1 0fbe a8d5 31bc a800 05be a08f 153e
00000050: 970d 1bbe e158 e3bd b794 553d 09f2 163e
00000060: 4a47 143e 6022 823d b926 833d 1156 88bd
00000070: 7bb0 dd3d ef8a b53d d2ad 4d3b f61f ffbd
00000080: d2be f5bd 2b63 4e3d 8413 5d3d b235 7d3d
00000090: 402e 15be 3c61 31bc d915 53bc 5763 f23d
000000a0: 91e5 2cbd 9a4f 2d3d 1ee7 07be ba4a 01be
000000b0: 1da1 d9bd bdd5 1c3d 9e64 26be ee96 51bd
000000c0: 2203 8cbd b712 0f3e 6861 9ebd 8fe9 c7bd
000000d0: 1975 bbbd 5015 203e 94d2 3cbc e3b4 87bd
000000e0: bec7 4bbd 9f50 133d b004 dbbc 49b9 1abe
000000f0: 7332 dfbd 496a b23d 414d 5dbd 27a0 313b
00000100: 5238 f13c 3562 0c3e 8f91 69bd f3d0 d93d
00000110: 8a73 9abd 84b7 ddbd 051b 8e3d 6671 7c3d
00000120: 37fc 62bd 7abd 3f3d cdaa 14be 8aae 863d
00000130: d247 763d 5b67 0d3d 3e51 0dbe f551 16bd
00000140: a636 113e c06d 953d 19f2 a2bd ab4a 5d3c
00000150: 844b 253d f0c4 1cbe 94b9 a13d d734 913d
00000160: 487f f63d 8b80 72bd 4e72 d23b 4165 5f3c
00000170: d27b 833c c466 f13d 8d9c a93c 501f 1a3e
00000180: 8e29 713d 5203 0d3e 3f75 25be 55e9 403d
00000190: 381c 1cbe 1d52 b2bd 4187 72bd 6804 1bbe
000001a0: e29d 083d 051d b23d 3414 f03d 1546 9abd
000001b0: ee8f e8bd e82b e83c e01e 25be 2eda d1bd
000001c0: d533 08be e701 76bd 824a f0bd 9c2c 31bd
000001d0: 3386 7b3d 622e b63d 1013 3dbd 110c b93d
000001e0: 6c4d 98bc e228 093d 8809 b7bd 5c90 283e
000001f0: 8134 dc3d 33e4 31bd 9625 0f3d 9c5e 1cbe
00000200: bd1e 603d ce3a 0a3e 5537 d6bd 70f4 18be
00000210: a06c 29be f09b 9b3d e535 da3b ea34 15be
00000220: 0218 333c de0c bd3d cacd 913d d497 55bc
00000230: 96e5 7c3d f934 f8bd d877 f63d c1f5 723d
00000240: c999 81bd ccb4 58bc dd48 0ebe 8e56 d53d
00000250: c7c3 133e 4940 163e 28a9 91bd b1b3 6abc
00000260: 0e3e 183e ca26 cfbd aa86 f63d 94d9 f8bd
00000270: e75a 14bc a8a3 8d3c bcb0 753d fba6 d9bd
00000280: 8907 2d3e 930a 82bd be56 163d 0fd4 443d
00000290: 6b43 a93d 613c 733d a38a febd fcc0 12be
000002a0: 4209 ba3d 6dbd 043e db77 a83d a9f1 07be
000002b0: 7c24 193e 4e86 57bd 1548 0a3e 61fa a53c
000002c0: f8ef 40bc d279 53bd f6cd ef3d 9fd8 123e
000002d0: d431 8d3d 89a2 353d 045d 003e de0b 4d3d
000002e0: ac43 6dbd 16d2 22ba 5df3 9b3d 408b 14bd
000002f0: c731 7ebc 7423 f83d db1d c03d 0546 bbbd
00000300: a70a 29bd ef91 563d 0dd9 8a3c a334 523d
00000310: e971 7e3d 5eeb 2f3e f7e9 a43d 2478 d3bd
00000320: 42bb ab3d 14e1 f73d 5ae1 a8bd a858 1e3d
00000330: 3188 76bd f37a d23d 765d 013e b705 183e
00000340: cf0b 2dbd 328f cc3d 4bb0 adbd 61c4 d5bd
00000350: 8d02 ebbc 1ad2 10be 5325 06be 0d6d a33d
00000360: e7dc 12be 676a 1c3e 508e 9c3d 31d9 c7bd
00000370: 2d03 b03d 823f 10be 3a5b e0bd c0b5 af3d
00000380: 4df3 393e 9123 9a3c 93f6 24be edd2 333e
00000390: 1ab8 b7bd a06a c4bd 6df7 023e 04f9 0abd
000003a0: a664 0a3d 8a39 413d 1d67 2bbd bce7 bcbd
000003b0: 5355 eb3d bf51 f2bd 60c3 73bd 7a27 73bd
000003c0: 5041 1dbe d06e 17be ea3d 113e 4138 f43d
000003d0: fa56 58bc 0d49 963c 6ecf 093e 06fc e83d
000003e0: 4ec3 bb3b f548 85bc 84f6 0b3e db81 c23d
000003f0: 2b8e 773d 0e2d c03d 4009 1f3d 8b98 c5bd

dense1.bias f4 [32]
-0.12242786 0.15325493 0.12013102 -0.0036680126 0.113194786 -0.065561816 0.0010072824 -0.1041057
-0.102632634 0.14851274 -0.1468053 0.04761426 0.115630455 -0.08625903 0.11220625 0.011292669
-0.061963093 0.016038854 0.006136359 0.07443629 0.04410213 -0.007130079 0.15286179 0.10966881
-0.09502057 -0.13126674 0.06566301 0.017417634 0.15607041 -0.063626565 0.10580997 0.018497216
00000000: 75bb fabd dcee 1c3e 4107 f63d 0a63 70bb
00000010: abd2 e73d 4645 86bd ca06 843a 5f35 d5bd
00000020: 0f31 d2bd b913 183e 2154 16be 2c07 433d
00000030: a9cf ec3d 93a8 b0bd 64cc e53d e304 393c
00000040: 03cd 7dbd ea63 833c 8313 c93b 0e72 983d
00000050: 6fa4 343d 70a3 e9bb cd87 1c3e 0b9a e03d
00000060: 259a c2bd ca6a 06be 547a 863d 6daf 8e3c
00000070: ecd0 1f3e a54e 82bd e6b2 d83d 7987 973c

dense2.weight f4 [12, 32]
0.15223296 -0.05580437 0.12701643 -0.01667295 -0.12420049 0.026968395 0.16722569 -0.12892188
-0.17227508 -0.13826466 -0.0049111163 -0.092636116 0.014488305 -0.1715334 -0.041162524 0.01772263
0.12357491 0.16153789 0.0854805 0.03994571 0.15960193 0.06138656 0.073885016 -0.088129796
-0.12968594 0.07606864 0.08209359 -0.1540546 -0.09678128 -0.050172213 -0.082162865 -0.08153211
-0.03578505 0.006172027 -0.1280674 -0.07601902 -0.12718007 -0.16470258 0.038856477 0.109971896
-0.11928673 -0.17588815 0.14269356 -0.17479332 -0.13145873 0.036595397 0.1433871 -0.06557415
0.17562221 -0.11455181 -0.11482486 0.09616173 -0.11881696 -0.049763404 -0.13453346 -0.11972709
-0.16895428 -0.0113824885 -0.12726295 0.005704884 -0.10987591 0.036946405 -0.016862141 0.024040913
-0.019328013 0.021759657 -0.09739246 0.003595712 -0.046017244 -0.16171567 -0.01912249 0.05014864
-0.17346704 -0.07552423 0.06684373 -0.054048207 -0.044968855 -0.11896041 -0.121085465 0.16299649
-0.11859536 -0.13382116 0.019027267 -0.0718762 0.10575524 0.03384218 -0.020899251 -0.15875785
-0.16006024 0.07600948 0.12379828 0.13825157 -0.110434756 -0.10262362 -0.06615741 -0.051933244
0.04918529 -0.053299267 -0.10467914 0.14436927 0.072913125 -0.15400557 0.06589212 -0.12611826
0.122322515 0.14378917 0.0309914 0.044907983 -0.12957706 0.18353945 0.026059426 -0.11070568
0.12567534 0.063377105 -0.00739192 -0.06132258 0.130139 0.071220115 -0.06811668 0.15734507
0.06648439 -0.1721576 -0.118715316 -0.0011466842 -0.10264984 0.12440651 0.134607 -0.1438594
0.12517613 -0.06573643 0.009571058 -0.070175596 0.15489161 -0.0042550615 -0.093836166 -0.17911202
0.13035472 0.10507182 0.000366879 0.019974576 -0.0998279 -0.06709065 0.05516377 0.009639538
-0.010229016 0.060933203 0.08754911 -0.13005094 0.1090012 -0.092073716 0.06498078 -0.13709672
0.15343186 -0.025534278 -0.05287692 -0.0073565715 0.09661201 0.10372632 0.05524526 0.030724747
-0.08217487 0.100894734 0.11733082 -0.05688185 -0.12389951 0.018506538 0.023884151 -0.07487167
-0.08419423 0.10790033 0.10455782 -0.06336112 -0.09528851 0.00078540423 0.050552104 -0.023280574
0.057851523 0.17218198 0.11213898 0.12418421 -0.04855162 0.043035753 0.085108005 0.15599838
0.10655549 0.15697135 0.04083711 -0.11257785 -0.06847331 -0.14380606 -0.12072257 -0.12817433
-0.014153473 -0.14534369 0.14909904 -0.16342483 0.052736633 -0.1363993 0.04248111 -0.06980703
0.0844301 0.015650325 -0.0697351 0.17141917 -0.11220058 0.06666499 -0.09565887 0.14432943
-0.16810904 0.043460112 0.04810045 0.056858044 0.042018127 0.04583892 -0.18069562 0.005004095
0.13829964 0.09390214 0.13265492 -0.07490576 -0.08330387 0.14223315 -0.14447327 -0.054314263
0.14364588 -0.03594413 -0.074220486 -0.14678472 -0.0851361 -0.14954016 -0.0014086666 0.08667659
0.038311966 0.1537928 0.050171036 -0.05494216 -0.17359449 -0.040099535 -0.061037432 -0.013673114
-0.12171161 -0.084185064 0.06503224 0.13302758 0.037482344 -0.16815618 0.14797789 0.10657244
0.15032567 0.0902941 -0.1605712 -0.08659807 0.10619603 -0.12971212 0.117664345 -0.043211088
00000000: f5e2 1b3e 2093 64bd 9810 023e b695 88bc
00000010: d45c febd d3ec dc3c 363d 2b3e 1904 04be
00000020: e168 30be 4095 0dbe 6eed a0bb 01b8 bdbd
00000030: 5b60 6d3c 74a6 2fbe 099a 28bd 0d2f 913c
00000040: d814 fd3d 306a 253e 6610 af3d 1d9e 233d
00000050: b06e 233e 7970 7b3d 0751 973d 657d b4bd
00000060: 64cc 04be e0c9 9b3d af20 a83d 7dc0 1dbe
00000070: 4435 c6bd 6181 4dbd 0145 a8bd 4ffa a6bd
00000080: 5893 12bd b73e ca3b 1a24 03be dcaf 9bbd
00000090: 7e3b 02be cba7 28be f827 1f3d f238 e13d
000000a0: 9a4c f4bd 061c 34be 431e 123e 05fd 32be
000000b0: 1e9d 06be 0ee5 153d 11d4 123e bd4b 86bd
000000c0: 4fd6 333e 249a eabd 4c29 ebbd 71f0 c43d
000000d0: 4e56 f3bd b6d4 4bbd 24c3 09be 7a33 f5bd
000000e0: 5a02 2dbe 9e7d 3abc 3851 02be 09f0 ba3b
000000f0: 9f06 e1bd 1d55 173d 7922 8abc 73f1 c43c
00000100: c855 9ebc 4f41 b23c b375 c7bd 09a6 6b3b
00000110: 947c 3cbd cb98 25be c5a6 9cbc a968 4d3d
00000120: 58a1 31be 73ac 9abd 5ee5 883d a761 5dbd
00000130: 4331 38bd 84a1 f3bd a8fb f7bd 8de8 263e
00000140: 20e2 f2bd 6a08 09be 12df 9b3c d433 93bd
00000150: 3496 d83d 199e 0a3d e834 abbc 6b91 22be
00000160: d5e6 23be dcaa 9b3d f489 fd3d d291 0d3e
00000170: 9e2b e2bd 552c d2bd 897d 87bd f4b7 54bd
00000180: 8476 493d 5550 5abd 0462 d6bd 8ad5 133e
00000190: 7a53 953d a3b3 1dbe 73f2 863d 2525 01be
000001a0: 3a84 fa3d 783d 133e ade1 fd3c 6ff1 373d
000001b0: d9af 04be c4f1 3b3e 947a d53c a9b9 e2bd
000001c0: 09b1 003e dbcb 813d eb37 f2bb 632d 7bbd
000001d0: 2843 053e dadb 913d c280 8bbd 111f 213e
000001e0: f828 883d 154a 30be 0421 f3bd 564c 96ba
000001f0: 143a d2bd d7c8 fe3d 6bd6 093e e14f 13be
00000200: 2c2e 003e d2a0 86bd edcf 1c3c 39b8 8fbd
00000210: e89b 1e3e 0b6e 8bbb 2d2d c0bd 2469 37be
00000220: b57b 053e e52f d73d aa59 c039 b9a1 a33c
00000230: 9272 ccbd d366 89bd 68f3 613d 27ef 1d3c
00000240: 9a97 27bc 1895 793d f34c b33d 132c 05be
00000250: 053c df3d 2591 bcbd a514 853d 1563 0cbe
00000260: 3e1d 1d3e 432d d1bc 7895 58bd 650f f1bb
00000270: 84dc c53d 776e d43d db48 623d 77b2 fb3c
00000280: 4c4b a8bd e6a1 ce3d 244b f03d f1fc 68bd
00000290: 07bf fdbd 069b 973c b2a8 c33c 5156 99bd
000002a0: 066e acbd d9fa dc3d 6922 d63d 7ac3 81bd
000002b0: 9f26 c3bd 96e3 4d3a b90f 4f3d e7b6 bebc
000002c0: b8f5 6c3d 7950 303e 1fa9 e53d 4b54 fe3d
000002d0: 10de 46bd 4246 303d 1b4d ae3d 0abe 1f3e
000002e0: c439 da3d 19bd 203e d044 273d 378f e6bd
000002f0: bc3b 8cbd e541 13be 653d f7bd 2240 03be
00000300: f8e3 67bc fad4 14be 6bad 183e d758 27be
00000310: 5e02 583d 42ac 0bbe ac00 2e3d fdf6 8ebd
00000320: b0e9 ac3d 1c35 803c 47d1 8ebd 8288 2f3e
00000330: 6bc9 e5bd a787 883d cce8 c3bd 18cb 133e
00000340: c724 2cbe 3b03 323d fa04 453d fbe3 683d
00000350: 331b 2c3d 97c1 3b3d 4608 39be 64f9 a33b
00000360: 6c9e 0d3e c44f c03d b1d6 073e 3168 99bd
00000370: 389b aabd 91a5 113e cdf0 13be a278 5ebd
00000380: e817 133e 273a 13bd e900 98bd bc4e 16be
00000390: d65b aebd 0e21 19be 02a3 b8ba 7f83 b13d
000003a0: 02ed 1c3d dc7b 1d3e 2580 4d3d 080b 61bd
000003b0: c1c2 31be 693f 24bd 6302 7abd 3205 60bc
000003c0: f043 f9bd 3869 acbd 9f2f 853d 6238 083e
000003d0: 1687 193d 2231 2cbe 8487 173e a742 da3d
000003e0: f9ee 193e 1dec b83d c76c 24be 545a b1bd
000003f0: 4e7d d93d 41d3 04be 01fa f03d 1cfe 30bd

dense2.bias f4 [12]
0.010608473 -0.046054512 0.13169852 0.059046417 0.026301147 -0.08665317 0.1479692 0.0798343
-0.14248264 0.0011074456 0.047642656 -0.155797
00000000: 29cf 2d3c a8a3 3cbd fadb 063e a8da 713d
00000010: 8175 d73c 3877 b1bd 3d85 173e 2a80 a33d
00000020: f8e6 11be b527 913a f224 433d 4089 1fbe

dense3.weight f4 [2, 12]
-0.01845666 0.23406534 0.15189844 0.12778902 0.012951901 0.023900554 0.012291381 0.008133417
-0.05498168 -0.07948571 0.18949257 -0.24198306 -0.21936993 -0.17798625 -0.19064471 0.27468222
-0.06298935 0.01412931 -0.17177199 -0.17111747 0.061500076 -0.25450873 -0.08340015 -0.22402878
00000000: 6c32 97bc d3ae 6f3e 448b 1b3e 20db 023e
00000010: 3634 543c 18cb c33c ca61 493c 0642 053c
00000020: 7834 61bd 67c9 a2bd 570a 423e 68ca 77be
00000030: 83a2 60be 0742 36be 5e38 43be 26a3 8c3e
00000040: 8f00 81bd 9f7e 673c ffe4 2fbe 6b39 2fbe
00000050: 81e7 7b3d f84e 82be b3cd aabd cd67 65be

dense3.bias f4 [2]
-0.19473526 -0.012035533
00000000: ae68 47be af30 45bc
